data/models/best_model.pth (torch, 681269 bytes, 49 tensors)

fc1.weight f4 [256, 48]
0	0x3d56b4e1	0.052418593
1	0xbd5d6079	-0.05404708
2	0x3d65fd1b	0.056149583
3	0x3e0df119	0.13861503
4	0x3cf4a11d	0.029861981
5	0xbd018385	-0.031619567
6	0xbdf06e5b	-0.11739799
7	0xbd8b304a	-0.0679632
8	0x3e12c1a7	0.14331685
9	0x3d3c0047	0.045898702
10	0xbd06c4da	-0.032902576
11	0x3ddbf4b1	0.107400306
12	0x3e25877a	0.16164961
13	0xbe073040	-0.13202
14	0x3dcc80f4	0.09985533
15	0xbe059176	-0.1304377
16	0xbd6f883f	-0.058479544
17	0xbc6898c9	-0.014196583
18	0xbb161cc2	-0.0022905325
19	0x3c815715	0.015788594
20	0xb914e53f	-0.0001419978
21	0x3ca998cb	0.02070274
22	0xbc5290dc	-0.01285192
23	0x3de91cfd	0.11382482
24	0xbe01b9aa	-0.12668481
25	0xbca7e8a3	-0.020496672
26	0x3d58ebc6	0.052959226
27	0xbdc247c9	-0.09486348
28	0xbd50b072	-0.05094952
29	0x3d619129	0.055070076
30	0x3d23bd99	0.039975736
31	0x3ceb6f78	0.028739676
32	0xbe073862	-0.13205102
33	0xbd9f818c	-0.07788381
34	0x3bc22179	0.0059244004
35	0xbc1d4ead	-0.009601277
36	0x3dd6e771	0.10493363
37	0xb4da28c3	-4.0635322e-07
38	0xbd62a61e	-0.055334203
39	0xbd1a2b3e	-0.037638895
40	0xbe571683	-0.21004681
41	0xbc8c5382	-0.017129663
42	0x3c0af86e	0.008482082
43	0x3de2bb61	0.11070896
44	0x3da33943	0.07969906
45	0x004edcec	7.24242e-39
46	0x391b2a5a	0.00014797729
47	0xbd888f3e	-0.06667946
48	0x3d15e274	0.036592916
49	0x3cb51883	0.022106415
50	0xbeba919f	-0.36439225
51	0x3e479831	0.1949165
52	0x3d82396c	0.063586086
53	0x3cab674b	0.020923277
54	0xbd58cdfe	-0.052930824
55	0x3dd32119	0.10309047
56	0xbdc8fc76	-0.09813778
57	0xbe0f2e00	-0.13982391
58	0xbdc61644	-0.096722156
59	0x3e2048c8	0.15652764
60	0xbe527a30	-0.20554423
61	0xbd6a476e	-0.057197027
62	0x3f36a6ba	0.71348155
63	0x3dd12ee5	0.102140225
64	0x3ec08c49	0.3760703
65	0xbda356a8	-0.07975513
66	0x3ea6e059	0.3259304
67	0xbe979414	-0.29605162
68	0x3dc987c3	0.098403476
69	0x3d97e636	0.07416956
70	0x3ec14bae	0.37753052
71	0xbd6634f5	-0.056202848
72	0xbea2b2ea	-0.31777126
73	0xbe47d212	-0.19513729
74	0xbdb79bcf	-0.08965265
75	0xbe188990	-0.14896226
76	0xbe32f2c0	-0.17475414
77	0xbe2b94f4	-0.1675604
78	0xbc577634	-0.01315074
79	0xbe435435	-0.19075091
80	0xbdd77885	-0.10521034
81	0x3ddf2d4c	0.108973116
82	0xbce8b6da	-0.028407503
83	0x3beb17f8	0.007174488
84	0x3e306169	0.17224659
85	0xb747b229	-1.1902805e-05
86	0xbda31f98	-0.079650104
87	0x3d522d11	0.05131251
88	0xbe48549b	-0.19563524
89	0xbe85e8cb	-0.2615417
90	0xba647cd9	-0.00087161135
91	0xbe3a1b9f	-0.18174599
92	0xbda3e6c5	-0.08003
93	0x0192d85a	5.394238e-38
94	0xba146845	-0.00056612893
95	0x3e211617	0.15731083
96	0x3d72dbba	0.05929158
97	0x3def215a	0.11676283
98	0xbe7853b1	-0.24250676
99	0x3e82ce15	0.25547853
100	0xbd30e27d	-0.043184746
101	0xbdd86ff0	-0.105682254
102	0xbdaa5ac8	-0.083180964
103	0x3e48018f	0.19531845
104	0x3dad6b18	0.08467692
105	0xbcd4c60f	-0.025973348
106	0x3ca38153	0.019959128
107	0x3da2c1ff	0.07947158
108	0xbdf75a19	-0.12077732
109	0xbe514320	-0.20435762
110	0x3e82c305	0.25539413
111	0x3df4b79c	0.11949083
112	0x3d7070b8	0.058701247
113	0xbd657ba3	-0.056026112
114	0x3e0bf6fc	0.13668436
115	0xbd166655	-0.036718685
116	0x3b4024ef	0.002931889
117	0x3d28a044	0.041168466
118	0x3dc1d242	0.094639316
119	0xbe195f70	-0.14977813
120	0xbc92b05f	-0.017906366
121	0xbc729ebc	-0.014808353
122	0xbc7668c9	-0.015039631
123	0xbd552af9	-0.052042935
124	0x3d9ad35c	0.07559845
125	0xbda8c84e	-0.0824133
126	0xbb52bbd7	-0.0032155418
127	0xbda14b05	-0.07875637
128	0xbde1701a	-0.1100771
129	0x3e1b8cda	0.1519045
130	0xbb2edc8a	-0.0026681744
131	0x3cd9aaf6	0.026570778
132	0x3defdbd2	0.11711849
133	0x34d8ef8c	4.0407429e-07
134	0x3c2fd2c5	0.010731404
135	0xbb17869d	-0.0023121007
136	0xbc12677c	-0.008935805
137	0xbe157c31	-0.14598157
138	0xbbef3de5	-0.0073010796
139	0xbdbac2c9	-0.091191836
140	0xbdee7990	-0.1164428
141	0x01431a04	3.583451e-38
142	0xb7ed6772	-2.8300772e-05
143	0xbc1d5cfc	-0.009604689
144	0x3e089685	0.13338669
145	0x3bd141cb	0.006386017
146	0x3d85aac8	0.065267146
147	0x3da9598f	0.08269035
148	0x3cf8be73	0.03036425
149	0x3e6424aa	0.22279611
150	0xbe1e6a07	-0.15470134
151	0xbdca7efa	-0.098875
152	0x3e124434	0.1428383
153	0x3e244718	0.16042745
154	0xb9bf375d	-0.00036471608
155	0x3ddc731e	0.10764144
156	0x3e68bcd3	0.2272828
157	0x3e2a8f01	0.16656114
158	0xbefe2633	-0.4963852
159	0xbe16c64e	-0.14724085
160	0xbe98a804	-0.29815686
161	0x3c3ee38f	0.011650934
162	0xbe638c78	-0.22221553
163	0x3d84589f	0.06462216
164	0xbcabaed3	-0.020957386
165	0x3beecfae	0.007287941
166	0xbedb4178	-0.42823386
167	0x3e73512e	0.23761436
168	0x3cf5fc53	0.030027544
169	0x3cc41337	0.023934944
170	0x3d57bb05	0.05266859
171	0xbdd15a39	-0.10222287
172	0x3beae6a6	0.0071686087
173	0x3d939f55	0.072081245
174	0x3d1a34d0	0.037648022
175	0x3dca2d8a	0.09871967
176	0x3df33c91	0.118767865
177	0x3e1110a3	0.14166503
178	0xba4c0dc1	-0.0007784032
179	0xbd4d5a81	-0.05013514
180	0xbd998036	-0.074951574
181	0xb5932984	-1.0964436e-06
182	0xbd25329d	-0.04033147
183	0xbd4a605c	-0.0494083
184	0x3c9604f4	0.018312909
185	0xbe0bfa21	-0.13669635
186	0xbb1bfeb0	-0.0023802929
187	0xbd0bf9f3	-0.034173917
188	0xbd923b14	-0.071401745
189	0x01bbb6f4	6.8955476e-38
190	0x39065e75	0.00012814424
191	0xbe80e7df	-0.25176904
192	0x3e71eb9c	0.23625034
193	0xbbe20a1c	-0.006898178
194	0x3da55653	0.08073106
195	0x3dc83723	0.097761415
196	0x3e108d62	0.14116433
197	0x3e040d39	0.12895669
198	0x3c612dc7	0.013743824
199	0xbdbe0045	-0.09277395
200	0x3d29a734	0.041419223
201	0x3af8eeac	0.0018992028
202	0xbcac1f65	-0.021011064
203	0xbdaae658	-0.08344716
204	0x3d893879	0.067002244
205	0x3d9644a7	0.07337313
206	0xbdb6ac3e	-0.08919571
207	0x3d35253a	0.044224955
208	0xbdfd8481	-0.12378789
209	0x3dea4ac0	0.11440039
210	0xbd75e99d	-0.060037244
211	0x3d5484a8	0.051884323
212	0xbc63fca0	-0.013915211
213	0x3cded1a2	0.02719957
214	0xbcfe31ac	-0.031029545
215	0x3e0cf8b4	0.13766748
216	0x3de37578	0.1110639
217	0x39e0fa9c	0.00042911328
218	0xbce5feb3	-0.028075552
219	0x3ceb9f57	0.028762503
220	0x3d5d9bb4	0.05410357
221	0x3c8ce5a9	0.017199354
222	0xbcb36a95	-0.021901408
223	0xbcfd28f5	-0.030903319
224	0x3d9a0185	0.07519821
225	0x3d1cc825	0.03827681
226	0xbc86487e	-0.016391989
227	0x3d1791b6	0.037004195
228	0x3e364d0f	0.17802833
229	0x348565fb	2.484738e-07
230	0xbc044d00	-0.008074999
231	0x3d9af8bb	0.07566973
232	0x3d741779	0.059592698
233	0x3d81c4e7	0.06336384
234	0x3b33e09f	0.0027447117
235	0x3daa8926	0.0832694
236	0x3de73a3d	0.11290405
237	0x0134e118	3.3222275e-38
238	0x39a46803	0.00031358012
239	0x3b9071c0	0.0044080913
240	0x3c2ccb8c	0.010546576
241	0x3d66f5a6	0.056386612
242	0xbd8d9cfa	-0.069147065
243	0xbc3d5c2f	-0.011557623
244	0x3e67c765	0.22634657
245	0x3c623019	0.013805413
246	0xbdb5e57a	-0.0888166
247	0x3dfcdc9b	0.12346765
248	0x3e126520	0.14296389
249	0x3d9cf5cd	0.0766407
250	0xbd09827b	-0.0335717
251	0x3d81c3c1	0.06336165
252	0xbc9b1b50	-0.018933922
253	0x3b7b39c2	0.0038333987
254	0xba60f316	-0.00085811445
255	0xbdda4041	-0.10656787

fc1.bias f4 [256]
0	0x360096e0	1.9161307e-06
1	0x34ed4e38	4.4201602e-07
2	0x34bf917b	3.5682373e-07
3	0xb57d5596	-9.437439e-07
4	0x34bdf31b	3.5380876e-07
5	0x353ffe90	7.152348e-07
6	0xb680e318	-3.8411345e-06
7	0xb3d4faf4	-9.9176674e-08
8	0x35db02ef	1.6317625e-06
9	0xb6b4f290	-5.392656e-06
10	0xb38e8aa0	-6.637606e-08
11	0xb594f820	-1.1099073e-06
12	0x376b6d82	1.4032588e-05
13	0xb74c4bea	-1.2177023e-05
14	0xb51d3585	-5.856494e-07
15	0xb76df424	-1.4183144e-05
16	0x359ee06d	1.1837234e-06
17	0x3806cf00	3.2140873e-05
18	0x363e3ff5	2.8349434e-06
19	0x32795828	1.4513752e-08
20	0x351ce4f3	5.8447694e-07
21	0x3668ff84	3.4719424e-06
22	0x371e2733	9.426661e-06
23	0x35051aad	4.958518e-07
24	0x365dd854	3.3057486e-06
25	0xb5308b3f	-6.576774e-07
26	0xb667b7f6	-3.4528762e-06
27	0x35aa8dc7	1.270725e-06
28	0x37187c98	9.088915e-06
29	0xb3c774dc	-9.287916e-08
30	0x37920595	1.7407156e-05
31	0xb7cc3405	-2.4342919e-05
32	0x35b30c49	1.3340115e-06
33	0xb7e2315d	-2.6964286e-05
34	0xb7e9a41d	-2.7852186e-05
35	0xb4b8b73c	-3.440599e-07
36	0xb6526cd9	-3.1355796e-06
37	0x36cb7589	6.0635543e-06
38	0x35299d68	6.318646e-07
39	0x350d2074	5.257382e-07
40	0x356c755a	8.808762e-07
41	0x3466735b	2.1462385e-07
42	0xb74e19c9	-1.228456e-05
43	0xb5698fe8	-8.7008675e-07
44	0xb66057d2	-3.342972e-06
45	0x34418881	1.8024186e-07
46	0xb384bcf7	-6.1811015e-08
47	0x37b282ac	2.1280102e-05
48	0xb6c840df	-5.9680165e-06
49	0xb5bf9562	-1.4274085e-06
50	0x3343e122	4.5606733e-08
51	0xb3bdb728	-8.834314e-08
52	0xb58c5903	-1.0456719e-06
53	0xb521e1c0	-6.0305683e-07
54	0x33decf48	1.0375385e-07
55	0xb5aceaab	-1.2883296e-06
56	0xb5285810	-6.2713025e-07
57	0xb7dbfb20	-2.6223774e-05
58	0x3776dff4	1.4714886e-05
59	0x36765b4e	3.6710003e-06
60	0x35a1ea46	1.2063617e-06
61	0xb84dba10	-4.9049093e-05
62	0x3574a908	9.1143056e-07
63	0xb6b399ca	-5.352519e-06
64	0x374ad742	1.2090257e-05
65	0x3709102e	8.1696035e-06
66	0xb63c2c86	-2.80401e-06
67	0xb62e8c29	-2.6009604e-06
68	0x35c1aa8d	1.4429257e-06
69	0x3571e29b	9.010925e-07
70	0x32803f5e	1.4929977e-08
71	0xb80f3529	-3.4143366e-05
72	0xb69bdb4b	-4.644889e-06
73	0x35a056d7	1.1946203e-06
74	0xb6d8a1bb	-6.4561295e-06
75	0xb64c5582	-3.044814e-06
76	0xb5b2493d	-1.3283349e-06
77	0xb6a0a999	-4.7881153e-06
78	0x358462e5	9.863548e-07
79	0x359700d9	1.1250623e-06
80	0x3581ecd8	9.68018e-07
81	0xb4cf31ae	-3.85929e-07
82	0xb80295c3	-3.113389e-05
83	0xb701eb48	-7.74378e-06
84	0x353d96d1	7.0627453e-07
85	0xb64d6826	-3.0608003e-06
86	0xb6240aa0	-2.444409e-06
87	0xb883aaa5	-6.278352e-05
88	0x37edac29	2.833277e-05
89	0xb8dcec6e	-0.00010534456
90	0x358418ec	9.84202e-07
91	0xb54b0403	-7.562923e-07
92	0x371d0e30	9.3612325e-06
93	0x35fc1689	1.8782022e-06
94	0x360cc3d7	2.097562e-06
95	0x370993c3	8.20024e-06
96	0x35886c90	1.0164385e-06
97	0x32d71130	2.503711e-08
98	0xb1f6b7a0	-7.180418e-09
99	0x353c727a	7.0202043e-07
100	0x35268ea6	6.20474e-07
101	0x3542fb59	7.263639e-07
102	0x3570f0ca	8.975736e-07
103	0x361a780e	2.301767e-06
104	0xb4f6f9c8	-4.600281e-07
105	0x34a9d210	3.1631544e-07
106	0xb8030db6	-3.1245603e-05
107	0x3325e340	3.862374e-08
108	0xb57c362e	-9.395616e-07
109	0xb5786a81	-9.2542183e-07
110	0x3640081d	2.8614952e-06
111	0xb7a28476	-1.9373587e-05
112	0x357eefe0	9.497144e-07
113	0x342f8d7a	1.6349614e-07
114	0x37b40b67	2.1462982e-05
115	0x372a6dc6	1.0158348e-05
116	0xb7877e00	-1.6151927e-05
117	0xb584b480	-9.887299e-07
118	0x35caca10	1.5108981e-06
119	0xb687cb34	-4.0469695e-06
120	0x35160524	5.5886835e-07
121	0x3696e873	4.497409e-06
122	0xb6b6c991	-5.447488e-06
123	0xb6093fb1	-2.0451664e-06
124	0xb5853b33	-9.926501e-07
125	0x35c1ef56	1.4449276e-06
126	0xb53411c0	-6.7081055e-07
127	0x369998d6	4.5775478e-06
128	0xb681ad92	-3.864706e-06
129	0xb55402a5	-7.898e-07
130	0x3718457a	9.076082e-06
131	0xb6d64298	-6.3854495e-06
132	0xb70ba211	-8.32278e-06
133	0x35242ba7	6.1158283e-07
134	0xb7bbd660	-2.2391963e-05
135	0xb6807019	-3.827747e-06
136	0xb59b3966	-1.1565105e-06
137	0x3450360c	1.9391172e-07
138	0x38516e96	4.9932474e-05
139	0x361d3e3e	2.3431053e-06
140	0xb65229a8	-3.1316686e-06
141	0x37ae3ad0	2.0769803e-05
142	0x34a54a82	3.0787857e-07
143	0x351112ae	5.404389e-07
144	0x34559d4f	1.98944e-07
145	0x338e43c8	6.6247196e-08
146	0x349d9edb	2.935911e-07
147	0xb84b4834	-4.8466216e-05
148	0x360ddeb5	2.114027e-06
149	0xb42b312c	-1.5943505e-07
150	0xb47ecace	-2.3729373e-07
151	0xb5c1fb56	-1.4452769e-06
152	0x364c607c	3.045453e-06
153	0xb23c3160	-1.0954267e-08
154	0x3489e240	2.5682857e-07
155	0xb6cf5209	-6.178631e-06
156	0xb379f649	-5.8198825e-08
157	0xb3988a44	-7.103202e-08
158	0x3674d7d0	3.6484453e-06
159	0xb69b5d42	-4.6302166e-06
160	0x35bc4110	1.4026027e-06
161	0xb53e15ad	-7.081206e-07
162	0x383412c8	4.2932836e-05
163	0xb4628a58	-2.109822e-07
164	0x37fcb42a	3.0124636e-05
165	0xb6ff083c	-7.600551e-06
166	0x37492262	1.1988539e-05
167	0xb5bc6c33	-1.4038582e-06
168	0xb560c508	-8.373322e-07
169	0x356d7cfc	8.8471256e-07
170	0xb4be63d7	-3.54629e-07
171	0xb500883e	-4.7881974e-07
172	0x3614be53	2.2164502e-06
173	0x331db5a8	3.6719626e-08
174	0xb38a5bee	-6.442848e-08
175	0xb574c646	-9.118561e-07
176	0xb594941f	-1.1069968e-06
177	0x3642e4ec	2.9041503e-06
178	0x3585d23c	9.970458e-07
179	0x36fb8c3a	7.4967074e-06
180	0x375abe3c	1.3038105e-05
181	0xb5bd6504	-1.4110997e-06
182	0x369a4d89	4.598584e-06
183	0x360a7fbb	2.0637951e-06
184	0xb554b210	-7.923527e-07
185	0xb6628301	-3.3752879e-06
186	0x377884a9	1.4812839e-05
187	0xb60c9488	-2.0948082e-06
188	0xb75c7402	-1.3140032e-05
189	0xb6771005	-3.6815193e-06
190	0xb554f1c1	-7.932795e-07
191	0x37b6aee2	2.1777527e-05
192	0xb6124a41	-2.1798917e-06
193	0x35a0ef02	1.1990489e-06
194	0x352ff87c	6.555417e-07
195	0xb45713c7	-2.003063e-07
196	0xb643841a	-2.9134158e-06
197	0x34747347	2.2766208e-07
198	0x35274f2c	6.232756e-07
199	0xb7c7b722	-2.3807926e-05
200	0xb4c1706a	-3.6030843e-07
201	0xb5647128	-8.510128e-07
202	0xb7d22f87	-2.5056082e-05
203	0x350e42c9	5.299631e-07
204	0x358b4408	1.0376107e-06
205	0x36881db9	4.056576e-06
206	0x34d10c44	3.8938208e-07
207	0xb63d3647	-2.8194788e-06
208	0x37813fee	1.5407768e-05
209	0x356a26f4	8.722848e-07
210	0xb6e241b6	-6.7429746e-06
211	0xb6856d38	-3.9764236e-06
212	0xb4f2cfec	-4.5227296e-07
213	0x3715f2f2	8.937657e-06
214	0x36229139	2.4224412e-06
215	0x36ba6e9a	5.5561077e-06
216	0x361901b6	2.2799773e-06
217	0xb4a89882	-3.1403403e-07
218	0xb67b1178	-3.7412083e-06
219	0xb50fafd9	-5.3527543e-07
220	0xb4209ac6	-1.4957467e-07
221	0x35e0ffe0	1.676377e-06
222	0x34640026	2.1234209e-07
223	0xb5c2e78c	-1.4521515e-06
224	0xb1efece0	-6.982745e-09
225	0xb63dbf2f	-2.8274478e-06
226	0x34b10f0a	3.2979761e-07
227	0x363683f9	2.7196932e-06
228	0x358b4351	1.0375899e-06
229	0xb57395d8	-9.0742606e-07
230	0xb4faa1e6	-4.6683925e-07
231	0x35da8e55	1.628369e-06
232	0xb547d475	-7.444244e-07
233	0xb5ba0104	-1.3858375e-06
234	0x3571fffc	9.0152e-07
235	0x3565ebff	8.565257e-07
236	0x350970ea	5.120079e-07
237	0xb5849f8d	-9.881202e-07
238	0xb6ae92b2	-5.2026817e-06
239	0x372ea4aa	1.0409547e-05
240	0xb8f27c4e	-0.00011562613
241	0xb65105a9	-3.1146722e-06
242	0x358e0dd0	1.0583844e-06
243	0x37729927	1.4459983e-05
244	0x35da2852	1.6254e-06
245	0xb4dbd124	-4.09441e-07
246	0xb690b212	-4.3122645e-06
247	0xb5330a0f	-6.6697334e-07
248	0xb55874c2	-8.0636175e-07
249	0xb6a685f0	-4.962778e-06
250	0x36239e84	2.438116e-06
251	0xb7fbd04a	-3.0018524e-05
252	0xb501b6d7	-4.832231e-07
253	0xb83a7f08	-4.4464163e-05
254	0xb51bd3ec	-5.8050387e-07
255	0xb50da8b2	-5.277208e-07

bn1.weight f4 [256]
0	0x3f5a95c1	0.85384756
1	0x3f87eb12	1.0618613
2	0x3f65f271	0.8982306
3	0x3f7b0616	0.9805616
4	0x3f69440c	0.91119456
5	0x3f45b98c	0.7723625
6	0x3f837dd0	1.027277
7	0x3f59615b	0.8491418
8	0x3f84274c	1.0324492
9	0x3f6df6a1	0.9295445
10	0x3f832f9c	1.0248904
11	0x3f79b791	0.97545725
12	0x3f7c3a83	0.9852678
13	0x3f9383fc	1.1524653
14	0x3f442b1f	0.766283
15	0x3f83b6f6	1.029021
16	0x3f6770f8	0.9040675
17	0x3f79fc10	0.9765024
18	0x3f5ea30c	0.8696754
19	0x3f50575f	0.8138332
20	0x3f5d48fa	0.8643948
21	0x3f75cc7e	0.96015155
22	0x3f8a0098	1.0781431
23	0x3f59bcd0	0.8505373
24	0x3f79ff88	0.97655535
25	0x3f6cbaed	0.92472726
26	0x3f6b32fb	0.91874665
27	0x3f5da4d5	0.8657964
28	0x3f85591b	1.0417818
29	0x3f6ba7a1	0.92052656
30	0x3f77375f	0.96568865
31	0x3f895dfb	1.0731806
32	0x3f85dbec	1.045774
33	0x3f95ce09	1.1703502
34	0x3f88a99e	1.0676763
35	0x3f5b9541	0.8577462
36	0x3f7d4e58	0.9894767
37	0x3f89bb1c	1.0760226
38	0x3f60b7c9	0.87780434
39	0x3f58d25a	0.8469597
40	0x3f67253e	0.902912
41	0x3f479d5a	0.77974474
42	0x3f82767c	1.0192409
43	0x3f6585cb	0.89657277
44	0x3f7907b5	0.97277385
45	0x3f5e6091	0.868661
46	0x3f540aa5	0.8282874
47	0x3f896a56	1.0735576
48	0x3f72714e	0.9470414
49	0x3f63b478	0.8894725
50	0x3f5591e9	0.83425766
51	0x3f506002	0.81396496
52	0x3f54ab90	0.83074284
53	0x3f7a7cd4	0.9784672
54	0x3f74d0ed	0.95631295
55	0x3f54f471	0.8318549
56	0x3f4c7afa	0.7987515
57	0x3f8b51a8	1.0884295
58	0x3f6728a0	0.90296364
59	0x3f830da5	1.0238539
60	0x3f5a2b04	0.85221887
61	0x3f959284	1.1685338
62	0x3f7683f7	0.9629511
63	0x3f7ebae1	0.99503905
64	0x3f7f514a	0.9973341
65	0x3f5eba36	0.87002885
66	0x3f8197f3	1.0124496
67	0x3f6a3c61	0.9149838
68	0x3f6790dd	0.9045542
69	0x3f6764cc	0.9038818
70	0x3f4fff39	0.81248814
71	0x3f8c8a5a	1.0979722
72	0x3f77cf75	0.9680093
73	0x3f6abf4e	0.9169816
74	0x3f83ad4e	1.0287263
75	0x3f86220b	1.0479139
76	0x3f6d8a5e	0.92789257
77	0x3f738255	0.95120746
78	0x3f6e428f	0.9307031
79	0x3f61793f	0.8807563
80	0x3f689d1a	0.9086472
81	0x3f4635e4	0.7742598
82	0x3f83d065	1.0297972
83	0x3f80cd8d	1.0062729
84	0x3f80debd	1.0067974
85	0x3f6e10c8	0.92994356
86	0x3f694e6c	0.9113529
87	0x3f976b1a	1.182956
88	0x3f9c83db	1.2227739
89	0x3fa350fa	1.2759087
90	0x3f6e9738	0.9319949
91	0x3f59bef7	0.85057014
92	0x3f83ccb7	1.0296849
93	0x3f662607	0.89901775
94	0x3f6d3fa0	0.9267521
95	0x3f7a1e8d	0.97702867
96	0x3f7722c2	0.9653741
97	0x3f82a29a	1.0205872
98	0x3f54606d	0.82959634
99	0x3f608fde	0.87719524
100	0x3f536384	0.82573724
101	0x3f5818a8	0.8441262
102	0x3f663669	0.89926773
103	0x3f65e632	0.89804375
104	0x3f800742	1.0002215
105	0x3f46c588	0.7764516
106	0x3f9390d2	1.1528571
107	0x3f5b7eb2	0.85740197
108	0x3f8474c1	1.034813
109	0x3f72d625	0.9485801
110	0x3f7cc3b3	0.98736113
111	0x3f895743	1.0729755
112	0x3f39e27e	0.72611225
113	0x3f4da654	0.8033192
114	0x3f9a2aa3	1.2044262
115	0x3f5bad12	0.8581096
116	0x3f888b91	1.0667592
117	0x3f70a500	0.9400177
118	0x3f573a1f	0.8407306
119	0x3f7f6118	0.9975753
120	0x3f6a9d7c	0.9164655
121	0x3f749674	0.95542073
122	0x3f77b4d7	0.96760315
123	0x3f4f9c3d	0.81097776
124	0x3f8a61fb	1.0811151
125	0x3f77ef46	0.9684948
126	0x3f5b7587	0.8572621
127	0x3f5e2509	0.8677526
128	0x3f69e152	0.91359437
129	0x3f5a99ee	0.8539113
130	0x3f7249e3	0.9464399
131	0x3f9648b4	1.1740937
132	0x3f89a166	1.075238
133	0x3f607aa4	0.87687135
134	0x3f81b6a8	1.0133867
135	0x3f8bf09c	1.0932803
136	0x3f4b31d9	0.79372936
137	0x3f67b1e6	0.90505826
138	0x3fa18c06	1.2620857
139	0x3f5e7fed	0.8691395
140	0x3f7cdeaf	0.9877729
141	0x3f808f42	1.0043719
142	0x3f62a9c7	0.8854031
143	0x3f79c2c0	0.9756279
144	0x3f76eff3	0.96459883
145	0x3f68193e	0.90663517
146	0x3f4c27ed	0.7974842
147	0x3f93af26	1.1537826
148	0x3f8523a6	1.0401504
149	0x3f533f9f	0.82518953
150	0x3f6c7a93	0.92374533
151	0x3f6d52ef	0.9270467
152	0x3f869703	1.0514835
153	0x3f5cf8ce	0.86317146
154	0x3f56df35	0.83934337
155	0x3f829a09	1.0203258
156	0x3f60a2b8	0.8774829
157	0x3f75e425	0.96051246
158	0x3f6d2067	0.9262757
159	0x3f6a7f13	0.9160015
160	0x3f5a0794	0.85167813
161	0x3f64366f	0.8914556
162	0x3f986025	1.1904341
163	0x3f5f173e	0.8714484
164	0x3f91a880	1.1379547
165	0x3f68ab08	0.9088597
166	0x3f717088	0.94312334
167	0x3f5a2fba	0.85229075
168	0x3f6b4e22	0.91916096
169	0x3f4b5227	0.7942223
170	0x3f50f845	0.8162883
171	0x3f4800c0	0.78126144
172	0x3f77851d	0.9668749
173	0x3f51ee3d	0.8200415
174	0x3f46fc96	0.77729166
175	0x3f58cc8d	0.8468712
176	0x3f75ad33	0.95967406
177	0x3f5c9c0e	0.8617562
178	0x3f53f9a6	0.8280281
179	0x3f81231c	1.008884
180	0x3f8e4118	1.1113615
181	0x3f68803d	0.90820676
182	0x3f896648	1.0734339
183	0x3f6019fa	0.8753964
184	0x3f95b309	1.1695262
185	0x3f554a75	0.8331674
186	0x3f814027	1.0097703
187	0x3f8b0284	1.0860143
188	0x3fa70bdc	1.3050494
189	0x3f80c742	1.0060809
190	0x3f689970	0.9085913
191	0x3f8e66f8	1.1125174
192	0x3f768403	0.96295184
193	0x3f7090ee	0.93971145
194	0x3f449a28	0.76797724
195	0x3f41a1ca	0.75637496
196	0x3f78f977	0.97255653
197	0x3f5d6a44	0.86490273
198	0x3f6b91c7	0.92019314
199	0x3f6ece97	0.9328398
200	0x3f8362d9	1.0264541
201	0x3f5a7d4b	0.8534743
202	0x3f885b16	1.0652797
203	0x3f5a5e85	0.85300475
204	0x3f51fac2	0.8202325
205	0x3f82fcc0	1.0233383
206	0x3f62d1ac	0.88601184
207	0x3f5625d2	0.8365146
208	0x3f855c0e	1.0418718
209	0x3f57c70f	0.84288114
210	0x3f844cb3	1.0335907
211	0x3f4e2231	0.8052092
212	0x3f46e3aa	0.7769114
213	0x3f8a6613	1.08124
214	0x3f5f9dea	0.8735033
215	0x3f7505b0	0.95711803
216	0x3f6c2ee3	0.92259043
217	0x3f6a0dfc	0.9142759
218	0x3f84b927	1.0369004
219	0x3f5f7ddb	0.87301415
220	0x3f603b54	0.8759053
221	0x3f6eaab7	0.9322924
222	0x3f6ccbb2	0.92498314
223	0x3f6d353b	0.9265935
224	0x3f5f8ec3	0.8732721
225	0x3f6ab53c	0.9168279
226	0x3f7058ad	0.9388531
227	0x3f63333c	0.8875005
228	0x3f6a654a	0.91560805
229	0x3f73e3ed	0.9526966
230	0x3f6e333a	0.93046916
231	0x3f6ae6f4	0.91758657
232	0x3f676a84	0.90396905
233	0x3f58dd5f	0.84712785
234	0x3f51bbb4	0.8192704
235	0x3f557e74	0.8339608
236	0x3f59aedb	0.85032433
237	0x3f84eff5	1.0385729
238	0x3f8542a5	1.0410963
239	0x3f8b4562	1.0880549
240	0x3fa3b618	1.2789946
241	0x3f60007f	0.87500757
242	0x3f6df5ca	0.9295317
243	0x3f75e0d4	0.96046185
244	0x3f7bc8f0	0.9835348
245	0x3f623d34	0.8837464
246	0x3f679dbb	0.9047505
247	0x3f5f52fa	0.8723599
248	0x3f5feea4	0.8747351
249	0x3f67e12d	0.90577966
250	0x3f54f00c	0.8317878
251	0x3f7d72d6	0.9900335
252	0x3f6f02aa	0.9336344
253	0x3f9a3dba	1.2050087
254	0x3f5d95c8	0.86556673
255	0x3f61a3a8	0.88140345

bn1.bias f4 [256]
0	0xbe1de29c	-0.15418476
1	0x3d737fa8	0.059447914
2	0xbd7cb79e	-0.06169855
3	0xbcd82c42	-0.026388291
4	0xbd919ea0	-0.071103334
5	0xbde00d1c	-0.109400004
6	0x3c661967	0.014044142
7	0xbe1e93ae	-0.15486023
8	0x3b96c195	0.0046007135
9	0xbdad01b8	-0.084475935
10	0x3d1057a6	0.035239838
11	0xbdb67ca6	-0.089104936
12	0xbc9ad073	-0.018898224
13	0x3c745aaa	0.014914194
14	0xbe269370	-0.1626718
15	0xbc6dc1de	-0.014511554
16	0xbc747030	-0.014919326
17	0x3da8713b	0.08224722
18	0xbe1750b8	-0.14776886
19	0xbe08e0d3	-0.13367014
20	0xbdff69c6	-0.124713466
21	0xbd873e0b	-0.06603631
22	0x3d377d2e	0.044797115
23	0xbda7fac3	-0.08202126
24	0xbce27168	-0.027641967
25	0xbded797f	-0.11595439
26	0xbe0924c2	-0.13392928
27	0xbdaba21c	-0.08380529
28	0x3d35826c	0.044313833
29	0x3d98e648	0.07465798
30	0xbdff49b1	-0.124652274
31	0xbd2ba0e0	-0.04190147
32	0xbc037f7f	-0.008026003
33	0x3d653ce8	0.055966288
34	0x3c87d48b	0.01658084
35	0xbe0ab4b0	-0.1354549
36	0xbd1b25bd	-0.037877787
37	0xbd54491c	-0.051827535
38	0xbd4e7830	-0.05040759
39	0xbe49d5af	-0.1971042
40	0xbce2e8ac	-0.027698837
41	0xbdfe8a10	-0.12428677
42	0x3d8ab015	0.06771866
43	0xbdda3991	-0.10655511
44	0xbb991429	-0.0046715927
45	0xbd9d84c7	-0.07691341
46	0xbe0d1577	-0.1377772
47	0x3d1e8477	0.038700547
48	0xbd3b02cf	-0.045656975
49	0x3d3dde7d	0.04635476
50	0xbe036420	-0.12831163
51	0xbdff0b8f	-0.124533765
52	0xbdad3c68	-0.08458787
53	0xbcefa246	-0.029252183
54	0x3c87ad53	0.01656214
55	0xbe629fff	-0.22131346
56	0xbe1d96c5	-0.15389545
57	0xbd872378	-0.06598562
58	0xbd6debed	-0.058086324
59	0x3d15f23a	0.03660796
60	0xbd7a79c1	-0.06115127
61	0xbca239e6	-0.019802999
62	0xbdd3e9fc	-0.10347363
63	0xbd397c7a	-0.045284726
64	0x3dccfb91	0.1000892
65	0xbc0afbc7	-0.00848288
66	0x3d6f8a4b	0.058481496
67	0xbdd1cd3b	-0.10244223
68	0xbe297671	-0.16549088
69	0xbd808970	-0.06276214
70	0xbe118b98	-0.14213407
71	0xbd4bba0f	-0.049737986
72	0x3c9056ff	0.017619608
73	0xbd7124f9	-0.05887315
74	0x3cd4df9f	0.025985537
75	0xbdb7fe57	-0.08984058
76	0xbdd36f76	-0.10323994
77	0xbd1e016e	-0.038575582
78	0xbd1fee22	-0.03904546
79	0xbd5a2ad7	-0.05326351
80	0xbd863a19	-0.0655405
81	0xbdc1fd09	-0.09472091
82	0xbccd49b4	-0.025059558
83	0xbe0067eb	-0.12539642
84	0xbb5b8807	-0.0033497827
85	0xbdcff8c7	-0.101548724
86	0xbcab7c75	-0.02093337
87	0x3d8f7b29	0.07005913
88	0x3db9ed9e	0.09078525
89	0x3ce427f3	0.02785108
90	0xbddf8c0d	-0.109153844
91	0xbca786c6	-0.020450007
92	0x3d8576f7	0.06516831
93	0x3c69d8b4	0.014272857
94	0xbb90f6b7	-0.004423942
95	0x3d26b6a6	0.04070153
96	0x3ba7659b	0.005108548
97	0x3d50a6e1	0.050940398
98	0xbe06453c	-0.13112348
99	0xbdc02337	-0.09381717
100	0xbcb9b382	-0.022668604
101	0xbd405cbd	-0.046963442
102	0x3c160133	0.009155559
103	0xbde3c3cf	-0.11121332
104	0x3d2f6552	0.042821236
105	0xbe57a639	-0.21059503
106	0x3c7ef3a2	0.015561016
107	0xbd752ca9	-0.059857044
108	0x3cdc6353	0.02690283
109	0x3cb6ea1c	0.022328429
110	0xbd9eb965	-0.07750205
111	0x3c832685	0.016009578
112	0xbdf1277f	-0.117751114
113	0xbda79089	-0.08181865
114	0x3ded1052	0.115753785
115	0xbde589b7	-0.11207908
116	0x3a9d9c66	0.001202476
117	0xbd4d1f86	-0.05007889
118	0xbd9da6dd	-0.07697842
119	0xbd6a75a4	-0.057241097
120	0x3d088251	0.033327404
121	0xbcbe7be4	-0.023252435
122	0x3d6e9ce2	0.058255084
123	0xbe072a76	-0.13199791
124	0xbe371936	-0.17880711
125	0xbce7da5d	-0.028302366
126	0xbe429148	-0.19000733
127	0xbd88055d	-0.06641648
128	0xbc849375	-0.016183594
129	0xbd97a3f8	-0.074043214
130	0xbd97f291	-0.07419313
131	0x3c55b4cb	0.013043593
132	0x3c0ef07d	0.008724329
133	0xbda28947	-0.0793634
134	0xbbfa187f	-0.0076323147
135	0x3d22b48d	0.039722968
136	0xbdd15923	-0.102220796
137	0xbd443d65	-0.047910113
138	0x3da9bfa5	0.082885064
139	0xbde8b737	-0.113630705
140	0xbba126fd	-0.004917978
141	0x3cc92b56	0.024556797
142	0xbd800135	-0.0625023
143	0x3db671c7	0.0890842
144	0x3db3ee87	0.0878573
145	0xbd83a265	-0.06427459
146	0xbe1a9691	-0.15096499
147	0xbc01f72e	-0.007932467
148	0x3d6721c6	0.056428693
149	0xbe12f45d	-0.1435103
150	0xbd61547d	-0.055012215
151	0xbdaf827b	-0.08569809
152	0x3d891eea	0.066953495
153	0xbd935d64	-0.07195547
154	0xbe3c255a	-0.18373623
155	0xbc7a6c35	-0.015284588
156	0xbd0e3f66	-0.03472843
157	0x3c44dacb	0.012015055
158	0xbdb23e36	-0.08703272
159	0xbd72fe03	-0.059324276
160	0xbe04e4bd	-0.12977882
161	0xbe054d1b	-0.13017695
162	0xbd332022	-0.043731816
163	0xbe0238e3	-0.12717013
164	0xbd21fe87	-0.039549377
165	0xbcfa7417	-0.030572934
166	0xbda97298	-0.0827381
167	0xbd861025	-0.06546048
168	0xbd84530e	-0.06461154
169	0xbe2ac91f	-0.16678284
170	0xbe24995d	-0.16074128
171	0xbe27e85b	-0.1639723
172	0xbdce004a	-0.10058649
173	0xbdb51d02	-0.088434234
174	0xbe38345f	-0.17988728
175	0xbe2190fd	-0.15777965
176	0xbc2e6cfc	-0.010646101
177	0xbc8f42cf	-0.017487912
178	0xbe0b7030	-0.13617015
179	0xbd3c310c	-0.045945212
180	0xbc5b586e	-0.0133877825
181	0xbd4f57f0	-0.050620973
182	0xbd3f0b66	-0.04664173
183	0xbe184a66	-0.14872131
184	0xbd469853	-0.04848511
185	0xbe2eb8a7	-0.17062627
186	0xbd258ba1	-0.040416364
187	0x3deb6b9f	0.114951365
188	0xbd78dfa8	-0.06076017
189	0x3d1f4f7a	0.038894154
190	0x3bc0d119	0.0058843014
191	0x3d5b24df	0.05350196
192	0xbda426bf	-0.08015203
193	0x3d47d06f	0.048782762
194	0xbe3c834f	-0.18409465
195	0xbe4844f0	-0.19557548
196	0x3d42590b	0.0474482
197	0xbd9658a5	-0.07341126
198	0xbdd9fb9c	-0.10643694
199	0xbd5edbdd	-0.054408897
200	0xbc8718f2	-0.016491387
201	0xbdc213fc	-0.09476468
202	0xbdc59624	-0.09647778
203	0xbd98cfc3	-0.074615024
204	0xbd4e8477	-0.050419297
205	0x3d87ad3e	0.0662484
206	0xbde94f1b	-0.11392041
207	0xbddb0720	-0.10694718
208	0xbd4e874e	-0.050422005
209	0xbd7f41dc	-0.062318668
210	0xbde3066c	-0.11085209
211	0xbd15b63f	-0.036550757
212	0xbe1655de	-0.14681193
213	0xbd14cb44	-0.03632666
214	0xbdac5d21	-0.084162004
215	0x3c5e5b78	0.013571613
216	0xbde5a4c2	-0.11213066
217	0xbcde8b1c	-0.027165942
218	0x3cfe349b	0.031030944
219	0xbdafd0ae	-0.08584724
220	0xbe196440	-0.14979649
221	0xbd78b3bf	-0.060718294
222	0xbd95c435	-0.07312814
223	0xbd8cdd0e	-0.068781
224	0xbb54f953	-0.0032497242
225	0xbdf5ff20	-0.12011552
226	0xbd65b77c	-0.056083187
227	0xbe02b4e6	-0.1276432
228	0xbd5829ad	-0.05277412
229	0xbd0037f7	-0.031303372
230	0x3bb52aef	0.0055287997
231	0xbd6d3a18	-0.05791673
232	0x3c702868	0.014658071
233	0xbe0e4169	-0.1389214
234	0xbdfa9ec7	-0.122373156
235	0xbe096151	-0.1341603
236	0xbde801b9	-0.113284536
237	0xbd88d9ff	-0.066822045
238	0xbd91ebb0	-0.07125032
239	0x3d058ea9	0.032606754
240	0x3d396ea3	0.045271527
241	0xbddbc342	-0.10730602
242	0xbd1fe048	-0.03903225
243	0xbd3cd052	-0.046097107
244	0xbd918d2e	-0.07107006
245	0xbd32d72e	-0.043662243
246	0x3c7dfb64	0.015501831
247	0xbcf24039	-0.02957164
248	0xbde79dc3	-0.113093875
249	0xbd53303a	-0.051559664
250	0xbdf0fd3b	-0.1176705
251	0xbe0db848	-0.13839829
252	0xbc8c9b6f	-0.01716396
253	0xbbccf485	-0.006254735
254	0xbd19111c	-0.037369832
255	0xbd339d56	-0.04385122

bn1.running_mean f4 [256]
0	0xc184f488	-16.6194
1	0x4089e2e7	4.308948
2	0x41bbbf87	23.46852
3	0x4152f2a5	13.184239
4	0x41711c25	15.069371
5	0x41792b99	15.573144
6	0xbf26228c	-0.64896464
7	0xc0d7624c	-6.730749
8	0xc10f7636	-8.96636
9	0x409078d4	4.5147495
10	0x4104a13b	8.289363
11	0xc16853f2	-14.520494
12	0xc0aa14dd	-5.315047
13	0x3e7b3fdc	0.24536079
14	0x4181c62f	16.22177
15	0xc0bd07ec	-5.907217
16	0x41a7de8e	20.98367
17	0xbf9b2de3	-1.2123379
18	0xc0fe047c	-7.9380474
19	0x41927384	18.306404
20	0x41e76e99	28.929003
21	0xc1465a30	-12.397018
22	0x40dd1857	6.909221
23	0xc0f5ca56	-7.680949
24	0x41087f61	8.531098
25	0x4127e18d	10.492566
26	0xc111db5d	-9.1160555
27	0xc1448766	-12.283056
28	0xc0becbc5	-5.962374
29	0xc11cfc6b	-9.8116255
30	0xc0ab547a	-5.354062
31	0x40b8f692	5.780099
32	0x40ee7066	7.4512205
33	0xc0bab789	-5.834904
34	0xc103a805	-8.22852
35	0x416e66e3	14.900119
36	0x3d5b0b0a	0.053477325
37	0xc127f404	-10.497074
38	0x41e95ae2	29.169376
39	0xc18719b4	-16.88755
40	0xc1a7df5a	-20.984058
41	0x41f75dbc	30.920769
42	0x40f9329e	7.787429
43	0xc223fda4	-40.997696
44	0xc0ac1bad	-5.3783784
45	0x420a8336	34.628136
46	0x41a0a244	20.079231
47	0xc10aff70	-8.687363
48	0xc0991975	-4.7843575
49	0x409ff4fa	4.9986544
50	0x41734bf9	15.206048
51	0x418b7ddb	17.436453
52	0x40eba336	7.363673
53	0x418eaa91	17.833284
54	0xc115d32f	-9.3640585
55	0x414c0db6	12.753347
56	0x414d94a2	12.848787
57	0xc107d81b	-8.49026
58	0xc0c57ee8	-6.1717415
59	0x413986ce	11.595411
60	0xc1a1cacb	-20.22402
61	0x3f82c2b4	1.0215669
62	0x410c67db	8.775355
63	0xc08798ea	-4.2374163
64	0xc0dff269	-6.998341
65	0xc08b8fa0	-4.3612823
66	0x41bd66ad	23.675135
67	0x3eb36432	0.3503738
68	0x40b11958	5.5343437
69	0x4186f53e	16.869747
70	0xc1662277	-14.383414
71	0xc00b5b07	-2.1774309
72	0x416911c8	14.566841
73	0xc1dffb2e	-27.997646
74	0xc0b0c93e	-5.5245657
75	0xc0c5eb63	-6.1849837
76	0x4090fb7d	4.5306993
77	0xc11c923a	-9.7857
78	0x4187ae0a	16.95998
79	0xc1a62f0c	-20.772972
80	0x41916740	18.175415
81	0x41c8d327	25.103102
82	0xc0e1b89f	-7.0537868
83	0xc0dc1a1a	-6.878186
84	0x410993af	8.598556
85	0x41651c14	14.319355
86	0x41950d18	18.631393
87	0xc08329c8	-4.0988503
88	0x408746a3	4.2273726
89	0xc02bc6f6	-2.6840186
90	0x40f21bd8	7.565899
91	0xc0f5d4b1	-7.6822133
92	0xc0bb3dd5	-5.851298
93	0xc1060d6c	-8.378277
94	0xc0f171d7	-7.5451465
95	0x41084dec	8.519024
96	0xc17e4208	-15.891121
97	0xc1be25f4	-23.768532
98	0xc11ce8e8	-9.806862
99	0xc18b3010	-17.398468
100	0x41a40cbc	20.506218
101	0x41b95ae2	23.169376
102	0xc20207b0	-32.507507
103	0x4127b6ff	10.482177
104	0xc10b8585	-8.720098
105	0x4149066c	12.564068
106	0x3f353a8a	0.7079245
107	0x40fa966d	7.8308625
108	0x41122aa4	9.13541
109	0xc1877535	-16.93223
110	0x40c21793	6.0653777
111	0xc07cd956	-3.9507651
112	0x4156c163	13.422214
113	0x41895249	17.165178
114	0xbf211b03	-0.6293184
115	0xc0aaf81c	-5.342787
116	0x408f7496	4.4829817
117	0xc0fb8eb5	-7.8611703
118	0x411a7b2e	9.655073
119	0xc0dc3517	-6.8814807
120	0x41b1fb08	22.247574
121	0x406e6b4c	3.725299
122	0x411a409b	9.640773
123	0xc1015da9	-8.085366
124	0x3f432a42	0.76236355
125	0xc134d3ab	-11.301677
126	0x40bdf47d	5.9360948
127	0xc18a0c32	-17.255955
128	0xc16727c8	-14.447212
129	0x416c4823	14.7676115
130	0x4147819d	12.469144
131	0x3fe4ca9e	1.7874334
132	0xc0b60202	-5.687745
133	0x4180729c	16.055962
134	0xc0831251	-4.095986
135	0x3ff560f0	1.9170208
136	0x411faaf1	9.979234
137	0xc19bf4c5	-19.494516
138	0xbed7536f	-0.42055842
139	0x411cbf8f	9.796767
140	0xc129fc5e	-10.624113
141	0xc0d8b2f0	-6.771843
142	0x4139dd0f	11.616469
143	0xc0ae87ee	-5.454093
144	0x41864de8	16.78804
145	0x4141bb95	12.108296
146	0x41bc8483	23.564703
147	0xbf86c5a4	-1.0529065
148	0xc1024c30	-8.1436
149	0xc11cb67f	-9.794555
150	0x41203929	10.013955
151	0x4117ee20	9.495636
152	0x40d7f453	6.7485747
153	0x414f3477	12.950309
154	0xc0e0019c	-7.0001965
155	0x4031c3ad	2.777568
156	0x420e011c	35.501083
157	0x4185d58b	16.729269
158	0xc0ee6ba2	-7.450639
159	0xc110197e	-9.006224
160	0x410ca0fb	8.789302
161	0x40e2f9fa	7.0930147
162	0xc072f34a	-3.7960992
163	0x410f5e66	8.9605465
164	0xc0d530cf	-6.662208
165	0xc0de75f6	-6.9518995
166	0xc0e2c749	-7.086827
167	0x419ab9be	19.340694
168	0xc1891c4f	-17.138823
169	0x412b712d	10.715131
170	0xc1854ff9	-16.66405
171	0xc10032fb	-8.012446
172	0xc0af80c2	-5.4844675
173	0xc10d4ce9	-8.831277
174	0xc1be811d	-23.813044
175	0x41c685ea	24.815388
176	0xc0e46b3b	-7.1380897
177	0xc173888a	-15.220835
178	0x417b6d94	15.714252
179	0x4103cd58	8.237633
180	0xbf497c83	-0.78705615
181	0xc0e8e113	-7.277475
182	0xc174ef86	-15.308477
183	0x403912ae	2.891765
184	0xc044a918	-3.0728207
185	0x414e9068	12.910255
186	0x403fa66c	2.9945326
187	0x41678854	14.470783
188	0x40880805	4.250979
189	0x41904443	18.03333
190	0x414c3e7c	12.765255
191	0x4020e02d	2.5136826
192	0x40d1bb23	6.554094
193	0xc184c65f	-16.59686
194	0xc20c27a9	-35.03873
195	0xc1701635	-15.005422
196	0xc11af487	-9.684699
197	0x41daa7e2	27.331974
198	0x41bcedde	23.616146
199	0x40015b81	2.02121
200	0x41eff967	29.996778
201	0x41c59637	24.698347
202	0xc0525fd4	-3.287099
203	0xc1163d75	-9.390004
204	0x4141474e	12.079908
205	0x4147b94b	12.482738
206	0xc122b452	-10.1690235
207	0xc102e01f	-8.179717
208	0xc0ea771c	-7.3270397
209	0x41ba66ea	23.300251
210	0x40aa06ea	5.313344
211	0xbfa56ec7	-1.2924432
212	0x40f7f457	7.7485766
213	0xc0936c9c	-4.607008
214	0x40702da6	3.7527862
215	0xc127b4c3	-10.481631
216	0xc1201197	-10.004294
217	0x41ac758e	21.5574
218	0x400e2afe	2.221374
219	0x41b827a3	23.019354
220	0x41676a14	14.463398
221	0xc170cc6a	-15.049906
222	0x415426b1	13.259446
223	0x40919219	4.549084
224	0x41a0c88d	20.097925
225	0x406aae47	3.666887
226	0xc1214a46	-10.080633
227	0xc0f0e6fb	-7.528196
228	0xc1fa69c8	-31.301651
229	0xc19c0726	-19.50349
230	0x4210462e	36.068535
231	0x41649c70	14.288193
232	0x41f8a1f4	31.079079
233	0x4177fb3e	15.498838
234	0xc12df744	-10.872868
235	0xc1969faf	-18.82797
236	0xc101fd66	-8.124365
237	0x418b641a	17.423878
238	0x40b4771c	5.6395397
239	0x405e8dc8	3.4774036
240	0xc033b259	-2.8077605
241	0x412c9ec6	10.788763
242	0x411e07ca	9.876902
243	0xc13e77a5	-11.90421
244	0xc10997d7	-8.59957
245	0x418abf9f	17.343565
246	0xc0cb783f	-6.3584285
247	0xc19b18d8	-19.38713
248	0x419e0dae	19.75668
249	0xc0bc02c4	-5.8753376
250	0xc0db4dc6	-6.853244
251	0xc00e0b17	-2.2194269
252	0xc230366c	-44.053146
253	0xc00b74a5	-2.1789944
254	0xc113a509	-9.227792
255	0xc1487940	-12.529602

bn1.running_var f4 [256]
0	0x430cf10d	140.9416
1	0x41300f6e	11.003767
2	0x438da0c2	283.25592
3	0x42b327cf	89.57775
4	0x42ca1dee	101.05846
5	0x42f04d52	120.15102
6	0x4162a2a0	14.164703
7	0x41e0903c	28.070427
8	0x4223b36a	40.92521
9	0x41828b7b	16.318106
10	0x42049d75	33.153767
11	0x43127ecc	146.4953
12	0x41db069a	27.378223
13	0x411ba83b	9.728572
14	0x430b401b	139.25041
15	0x41a3e80f	20.48831
16	0x4363a466	227.64218
17	0x412b6537	10.712211
18	0x420146d9	32.319187
19	0x43329efe	178.62106
20	0x43d93bda	434.4676
21	0x42abe641	85.949715
22	0x41a1207d	20.140863
23	0x42731a6b	60.7758
24	0x4242db57	48.7142
25	0x42520075	52.500446
26	0x4243f346	48.98757
27	0x4298b844	76.35989
28	0x41cc3fac	25.53109
29	0x4270bd6f	60.184994
30	0x418d22d9	17.642015
31	0x4188c4f4	17.096169
32	0x41cbfdec	25.498985
33	0x41d43c5c	26.529472
34	0x4221e38c	40.472214
35	0x42d10cc8	104.52496
36	0x40b7b2cf	5.740577
37	0x42829529	65.29133
38	0x43dfed41	447.85355
39	0x430fd75b	143.84123
40	0x436f3922	239.22318
41	0x43f81a88	496.20728
42	0x41c27894	24.308876
43	0x445fe826	895.6273
44	0x41aeb55a	21.83855
45	0x44209858	642.3804
46	0x43590b8e	217.04514
47	0x4255fa7b	53.49461
48	0x41876064	16.922066
49	0x4158cfe4	13.550755
50	0x42e870ed	116.22056
51	0x431ca79b	156.65471
52	0x42051529	33.270664
53	0x431e7bf7	158.48424
54	0x4246a31c	49.659286
55	0x42a7ac5d	83.83665
56	0x42c5b070	98.844604
57	0x4244b5cc	49.177536
58	0x41fb676b	31.425497
59	0x426f7aea	59.870033
60	0x435647ae	214.28
61	0x40bb2310	5.84803
62	0x423cb8e6	47.180565
63	0x4170bc80	15.0460205
64	0x41e92f3e	29.148067
65	0x415b7fbd	13.718686
66	0x43867e52	268.98688
67	0x4104eed8	8.308311
68	0x41b963ef	23.173796
69	0x430d255f	141.14598
70	0x42d0a25a	104.31709
71	0x4131eda0	11.120514
72	0x42bece49	95.4029
73	0x43cf6cec	414.85095
74	0x41b09b02	22.075687
75	0x41d31d4a	26.389301
76	0x4190fca7	18.123365
77	0x42804ac3	64.14602
78	0x430eeb4c	142.91913
79	0x4360c768	224.77893
80	0x432f8d7a	175.55264
81	0x439bd369	311.65164
82	0x41d63e51	26.780428
83	0x41ff1b5b	31.888357
84	0x42056b43	33.354748
85	0x42ca4585	101.13578
86	0x43286613	168.39873
87	0x415dd26b	13.863872
88	0x411fbb10	9.98317
89	0x40a5e846	5.1846037
90	0x41d394f0	26.447723
91	0x41f3ad62	30.45966
92	0x41cbaf30	25.46054
93	0x42089973	34.149853
94	0x41e8b8e1	29.090273
95	0x41dda242	27.704227
96	0x42ff8a40	127.77002
97	0x43a09981	321.19925
98	0x424af923	50.743298
99	0x43466683	198.40044
100	0x435d0036	221.00082
101	0x4384aceb	265.35092
102	0x4409769c	549.8533
103	0x42a48dcb	82.27694
104	0x420ba750	34.91339
105	0x42b2cfa0	89.40552
106	0x407fe5ba	3.9983964
107	0x422209e9	40.509678
108	0x423b0bc9	46.76151
109	0x430c27f7	140.15611
110	0x41c3f6c9	24.4955
111	0x4151c9a8	13.1117325
112	0x42b0d97e	88.42479
113	0x432841c3	168.25688
114	0x4031001a	2.7656312
115	0x418b301a	17.398487
116	0x41113e2a	9.077677
117	0x420e86ec	35.63176
118	0x4241901b	48.390728
119	0x41dffba4	27.997871
120	0x436eb42c	238.7038
121	0x4149e4a1	12.618318
122	0x4209117d	34.26708
123	0x421f0d26	39.76284
124	0x4107daa6	8.490881
125	0x42abeee8	85.96661
126	0x41a5faac	20.747398
127	0x4321ce00	161.80469
128	0x430584a6	133.51816
129	0x42d425c4	106.07376
130	0x4296d29e	75.41136
131	0x4108dd54	8.554035
132	0x41ac3f3a	21.530872
133	0x42fa4fd3	125.15591
134	0x41649dd5	14.288533
135	0x40ed14e5	7.4088006
136	0x4252d4ca	52.7078
137	0x4358a30f	216.63695
138	0x4028756e	2.6321673
139	0x4259eb1a	54.47959
140	0x426659ac	57.58757
141	0x41c9a951	25.207674
142	0x4286a3f3	67.32021
143	0x4172ad7a	15.167353
144	0x43077d74	135.49005
145	0x42af3515	87.603676
146	0x43a01892	320.19196
147	0x40ce557b	6.4479346
148	0x423cc458	47.191742
149	0x4295bc5c	74.86789
150	0x428146ed	64.63853
151	0x4252a0d7	52.65707
152	0x418fccbd	17.97497
153	0x42af2e3a	87.59029
154	0x420a1d9b	34.52891
155	0x40fd1aeb	7.909536
156	0x44289529	674.3306
157	0x430d80ed	141.50362
158	0x421ba542	38.911385
159	0x4222ec2d	40.73064
160	0x4215fcfe	37.497063
161	0x41bef741	23.87073
162	0x412cddb4	10.804127
163	0x4234a8f8	45.16501
164	0x41e11446	28.1349
165	0x4234401e	45.062614
166	0x42222ff7	40.54684
167	0x432f7317	175.44957
168	0x4315df8a	149.8732
169	0x42660b68	57.51114
170	0x431e58ff	158.34764
171	0x4231b744	44.42897
172	0x418da4c3	17.70545
173	0x421d2fd0	39.29669
174	0x438bc0bb	279.5057
175	0x439974b2	306.91168
176	0x41dc7fff	27.562498
177	0x42fa643a	125.195755
178	0x42f0f647	120.48101
179	0x42244308	41.06546
180	0x40aab9af	5.3351665
181	0x4212878d	36.632374
182	0x42ce475a	103.13936
183	0x4157343f	13.450255
184	0x413c49ba	11.768
185	0x42c87149	100.22126
186	0x40838548	4.1100197
187	0x42d4e05f	106.438225
188	0x416cf167	14.808936
189	0x4314fc20	148.98486
190	0x42997aeb	76.740074
191	0x415aa3f5	13.665029
192	0x41cd5301	25.66553
193	0x43092350	137.13794
194	0x4422f2f4	651.79614
195	0x42e75713	115.67007
196	0x424a683d	50.601795
197	0x43b9d88d	371.6918
198	0x4394695c	296.82312
199	0x40b70733	5.719629
200	0x43d91e77	434.238
201	0x4391ed0d	291.85196
202	0x414cdc9d	12.803861
203	0x4270d813	60.21101
204	0x429a6dbb	77.21432
205	0x42a78778	83.76459
206	0x4263d464	56.957413
207	0x41f740df	30.906675
208	0x41cd16e8	25.636185
209	0x438820c5	272.256
210	0x41a5db14	20.731972
211	0x40c319c3	6.0968947
212	0x41fc23f5	31.517557
213	0x4190742d	18.056726
214	0x411660b1	9.398606
215	0x4280ba89	64.36433
216	0x4253de80	52.967285
217	0x4384398b	264.44955
218	0x40b22aca	5.5677233
219	0x438c3df0	280.4839
220	0x42d15a5d	104.67649
221	0x42e0d775	112.420815
222	0x42b7ae08	91.839905
223	0x4144a97e	12.29138
224	0x4344d135	196.81721
225	0x4157a67a	13.478144
226	0x426679e1	57.619022
227	0x42237cc7	40.871853
228	0x43f8777b	496.93344
229	0x4353d41a	211.82852
230	0x4426eaff	667.6718
231	0x42b2de70	89.43445
232	0x43f69c87	493.22287
233	0x43036024	131.37555
234	0x4263a980	56.915527
235	0x433eb656	190.71225
236	0x422dca5e	43.447624
237	0x4319d22c	153.82098
238	0x41b4a5cc	22.580956
239	0x4196c6a0	18.846985
240	0x407f7441	3.9914706
241	0x425ff0af	55.985043
242	0x42493f98	50.312103
243	0x429ddf1f	78.93578
244	0x425220c5	52.532
245	0x4318fb03	152.98051
246	0x41b08d58	22.069016
247	0x43338571	179.52126
248	0x435c0816	220.03159
249	0x41da6504	27.299324
250	0x41f0510a	30.03957
251	0x40e4874b	7.1415153
252	0x447e3916	1016.89197
253	0x417539a4	15.326572
254	0x42502ff5	52.046833
255	0x42a141d0	80.62854

fc2.weight f4 [128, 256]
0	0x38075e24	3.2274183e-05
1	0x3decfe42	0.11571933
2	0x3d04e88e	0.032448344
3	0xbe6b6c9c	-0.2299065
4	0x3ca0f85b	0.019649675
5	0x3d999ec0	0.07500982
6	0xbdb481eb	-0.088138424
7	0x3d79e544	0.06100966
8	0x3e01e20b	0.12683885
9	0xbaf721e6	-0.0018854707
10	0x3d9e54e1	0.07731033
11	0x3dc2ec4f	0.095177285
12	0x3bbf62d5	0.005840639
13	0xbe5be800	-0.2147522
14	0xbae2f204	-0.0017314558
15	0xbcec6d02	-0.028860573
16	0xbd0e0f85	-0.03468277
17	0xbe34a240	-0.17640018
18	0xbd94e792	-0.07270731
19	0x3d21f0d4	0.039536312
20	0xbd03dccd	-0.032192994
21	0x3d200eb4	0.039076522
22	0x3dc2c141	0.095095165
23	0xbc68505e	-0.014179317
24	0x3c8a1973	0.016857838
25	0x3dcf862a	0.10133012
26	0x3cd88c64	0.026434131
27	0xbd16bf04	-0.03680326
28	0xbe141b09	-0.14463438
29	0x3d129508	0.03578666
30	0x3d41b068	0.047287375
31	0xbe093fe7	-0.13403283
32	0x3ba8b3aa	0.0051483708
33	0xbdbb04a1	-0.09131742
34	0xbd19ccb2	-0.03754873
35	0xbe556d71	-0.2084253
36	0xbe08b697	-0.13350902
37	0xbe0de9f2	-0.13858774
38	0x3bc1a35e	0.0059093675
39	0xbd95da42	-0.0731702
40	0xbe19ff7b	-0.15038864
41	0x3cace054	0.021103062
42	0x3de23680	0.11045551
43	0xbceea646	-0.02913202
44	0xbd691f92	-0.056914873
45	0xbcd49f92	-0.025954995
46	0x3d7c0ef7	0.06153771
47	0xbe074c86	-0.13212785
48	0x3dd69649	0.10477883
49	0x3d692f30	0.056929767
50	0xbd0ead07	-0.03483298
51	0xbcf97a58	-0.030453846
52	0x3d2d38df	0.042290565
53	0xbe035bdf	-0.12828015
54	0x3d2ea0fc	0.042633995
55	0xbd711268	-0.058855444
56	0x3c7f44fc	0.015580412
57	0xbde0a71c	-0.109693736
58	0xbde1820b	-0.11011132
59	0x3dd53e34	0.10412255
60	0xbc3931c1	-0.011303366
61	0xbe289dc4	-0.16466433
62	0xbda27d01	-0.07933999
63	0x3db59cba	0.08867784
64	0xbe2e5246	-0.17023572
65	0x3d77fb1d	0.060542215
66	0xbb251948	-0.002519207
67	0xbd183eee	-0.03716939
68	0x3dbdcf0a	0.09268005
69	0xbc7f5634	-0.015584517
70	0xbc6885da	-0.014192069
71	0xbdd05a58	-0.10173482
72	0x3dc47376	0.09592335
73	0xbe139c2b	-0.14415042
74	0x3e25debb	0.16198246
75	0x3da22529	0.07917244
76	0x3c31f881	0.010862471
77	0xbdab212e	-0.08355938
78	0xbd1add35	-0.037808616
79	0xbd90498c	-0.07045278
80	0x3cca3a90	0.024686128
81	0x3d4f25fa	0.050573327
82	0xbe382aef	-0.17985128
83	0x3c23d75f	0.010000079
84	0x3df914ae	0.121621475
85	0x3c06794e	0.008207632
86	0x3ddfd6e5	0.1092966
87	0xbe2db966	-0.16965255
88	0x3e1c10a7	0.15240727
89	0x3d49c8e2	0.049263842
90	0x3db09de7	0.086238675
91	0x3dd5c456	0.10437839
92	0x3dd0a7fa	0.10188289
93	0xbcec6456	-0.028856438
94	0xbdf5b40a	-0.1199723
95	0x3d0a8ae1	0.03382385
96	0xbcc9db51	-0.024640711
97	0xbcc07e9a	-0.023497868
98	0xbccc28bc	-0.024921767
99	0x3c0dccbf	0.008654772
100	0x3a3528a6	0.0006910659
101	0x3a140d3a	0.0005647723
102	0xbdf1460d	-0.11780939
103	0xbdd03051	-0.101654656
104	0xbd9b0a87	-0.07570367
105	0xbd6b009d	-0.05737363
106	0xbdb1167d	-0.086468674
107	0x3d907e25	0.0705531
108	0xbd24fb57	-0.04027876
109	0x3df0fb8d	0.117667295
110	0xbcfe42c4	-0.031037696
111	0x3cad6e9d	0.021170909
112	0xbcfdc4b1	-0.030977579
113	0xbcf60ade	-0.030034479
114	0x3e62d0bb	0.22149937
115	0xbdd86dc2	-0.1056781
116	0xbb0a1c66	-0.0021074056
117	0xbdffe0bd	-0.12494037
118	0x3d509c11	0.050930087
119	0xbd60256f	-0.0547232
120	0xbba37177	-0.0049878913
121	0x3cffa72e	0.031207647
122	0x3d925628	0.07145339
123	0xbc8d82c8	-0.017274275
124	0x3ca7876c	0.020450316
125	0x3dca8950	0.098894715
126	0x3d8e31b7	0.06943076
127	0xbd71b89f	-0.05901396
128	0x3d006480	0.031345844
129	0x3d609ab2	0.05483503
130	0x3d7aacb4	0.06119986
131	0xbc65b2ab	-0.014019649
132	0xbe0b81bc	-0.13623708
133	0x3dff6f60	0.12472415
134	0xbd79cde2	-0.06098736
135	0xbdbb86c4	-0.09156564
136	0x3ca00f91	0.019538673
137	0xbc4172aa	-0.011807123
138	0xbd9a1828	-0.07524139
139	0x3d60a52d	0.054845024
140	0xbdb6f535	-0.08933488
141	0xbe0cced7	-0.13750778
142	0x3c11872a	0.008882323
143	0xbb02bfca	-0.001995074
144	0x3d2db515	0.04240902
145	0x3cde2bbc	0.027120464
146	0xbaf93d39	-0.0019015438
147	0xbd02521a	-0.03181658
148	0x3df5131b	0.11966535
149	0xbd24c65f	-0.040228244
150	0xbda61d82	-0.08111097
151	0xbd25e59c	-0.040502176
152	0x3cc0a5df	0.023516594
153	0xbc6eac95	-0.014567514
154	0x3c5f0daa	0.013614098
155	0x3da5990f	0.08085834
156	0x3d462993	0.048379492
157	0x3d087082	0.03331042
158	0x3dab208b	0.083558165
159	0x3c3eedb9	0.011653357
160	0xbc9b5242	-0.018960122
161	0xbc7b3b45	-0.015333955
162	0xbddd96a3	-0.10819747
163	0x3a9a4979	0.0011771164
164	0xbcdbedaf	-0.026846735
165	0x3dc40bd0	0.095725656
166	0xbe028192	-0.1274474
167	0xbd16881d	-0.0367509
168	0xbdca91d9	-0.098910995
169	0xbd09cfaf	-0.033645328
170	0xbcf0356b	-0.029322347
171	0x3c2ceccf	0.010554506
172	0xbd995085	-0.07486061
173	0xbdb8c112	-0.090212
174	0xbe0911df	-0.13385724
175	0x3d3b1673	0.045675706
176	0x3c97d1b9	0.01853262
177	0xbce370fe	-0.02776384
178	0x3da1a0f2	0.07892026
179	0xbe2490b3	-0.16070823
180	0xbd96e842	-0.073685184
181	0xbbc3aa98	-0.005971264
182	0xbdcff896	-0.10154836
183	0xbdb7b17c	-0.08969399
184	0xbda023ac	-0.07819304
185	0xbc9efeef	-0.019408671
186	0x3e19f957	0.15036522
187	0xbd1df4e3	-0.03856362
188	0xbe0f856e	-0.14015743
189	0x3dd45ddd	0.103694655
190	0x3d7d8ab0	0.06189984
191	0xbd155f16	-0.036467634
192	0x3d7e6455	0.062107403
193	0xbd872e39	-0.06600613
194	0xbc1aca6e	-0.009447677
195	0xbd43b8bf	-0.04778361
196	0xbc9ad96d	-0.018902505
197	0x3b60467d	0.0034221702
198	0xbcb849ea	-0.022496182
199	0x3dd78393	0.10523143
200	0x3d0f7704	0.03502561
201	0x3d179b8f	0.037013587
202	0xbd94af65	-0.07260016
203	0x3d64f82c	0.055900738
204	0x3d855699	0.06510658
205	0xbe49a3da	-0.1969141
206	0xbcd4388f	-0.025905875
207	0x3d8c21a6	0.068423554
208	0xbd31a6ce	-0.043371968
209	0x3dcba3ac	0.09943327
210	0xbcc51ffa	-0.0240631
211	0xbdee3e1b	-0.116329394
212	0xbd3c5a70	-0.045984685
213	0xbbb775a7	-0.005598742
214	0x3d267ae1	0.04064453
215	0xbde743be	-0.11292218
216	0xbd53586a	-0.05159799
217	0xbd26d14d	-0.04072695
218	0x3da6cc14	0.081443936
219	0x3da9b9a6	0.08287363
220	0xbd3eb3a2	-0.04655803
221	0xbd5734f8	-0.05254075
222	0xbdf8ae7f	-0.121426575
223	0x3cab7064	0.020927615
224	0x3db200e4	0.08691576
225	0xbd57727e	-0.052599423
226	0x3d2b2366	0.041781805
227	0x3d0231d5	0.031785805
228	0xbba0fbcd	-0.0049128295
229	0xbd3942ed	-0.04522984
230	0x3ce72309	0.028214948
231	0x3b187360	0.0023262128
232	0xbc3cce42	-0.011523785
233	0x3bf02c01	0.0073294644
234	0xbd035c99	-0.03207073
235	0x3ce9137c	0.028451674
236	0xbd7d9742	-0.06191183
237	0x3cf478ad	0.029842699
238	0xbdcb7a61	-0.09935451
239	0xbe425c61	-0.18980552
240	0x3dd89cc1	0.105767734
241	0x3d741fc6	0.059600614
242	0xbd67e96b	-0.05661909
243	0xbd7f80b6	-0.062378608
244	0xbd295c00	-0.041347504
245	0x3d9b0c3f	0.07570695
246	0xbc9d0527	-0.019167496
247	0xbd8cc9bd	-0.06874416
248	0xbc15efa8	-0.009151377
249	0x3d5f6146	0.054536127
250	0xbd1037cd	-0.035209466
251	0x3d70a6b0	0.058752716
252	0xbe0892d6	-0.13337263
253	0xbe014720	-0.12624788
254	0xbda3f84d	-0.08006344
255	0x3d0c71de	0.03428828
